models/best_model.pt (torch, 98018 bytes, 14 tensors)

embedding.weight f4 [64, 36]
00000000: b7d1 f03d 4180 be3c a24d 09bd 909f d3bd
00000010: e957 6e3d b558 8b3d 5825 3abe 13df 383e
00000020: eebb e23c 491b 77bc c892 b03d 5cc6 ec3d
00000030: 1c11 d8bd 5bdb f5bd 8209 96bb 21d1 b93d
00000040: f935 47bd 29a5 31bd 72d4 5ebe 35e0 25bd
00000050: 528d d7bd 5b37 07be d971 93bd 9b40 08be
00000060: e1dd bfbd fa0f 76bd 3485 d63b c616 283e
00000070: 540f 2c3d cc08 7f3c 15e5 2bbe cc85 28be
00000080: bcc0 e5bb 9a9d bf3d af79 11be 4285 9c3d
00000090: 3aad 953d 1f1f c8bd a061 10be 3726 57bd
000000a0: 6554 153e 44f2 03be ca22 03be e937 04be
000000b0: d1a7 abbd 5583 913d 0db0 823d b043 bc3c
000000c0: 3c54 c7bd 9ca0 833c f416 a83d c157 fe3b
000000d0: 835b 3a3d 7021 2bbe dc1b 4abe 03b3 8ebd
000000e0: 018f 4dbe 3439 bdbd 1be0 cabd f270 c23d
000000f0: 6db4 b3bc 9422 fcbd 254e 22be 2602 dcbc
00000100: 2032 373d 018f 91bc 64b4 c0bd 1dce c63d
00000110: a8b3 39bd 52c0 233e b092 ea3d d698 54bc
00000120: 4664 dc3d 1c7b cf3c 9098 233d e434 92bd
00000130: 501f e9bd f8d0 06be 086f 883d 24f3 493d
00000140: b199 b0bd 50c2 95bd 3fcd 873b 5aea 95bd
00000150: f236 603d 5f50 083e bb1e d8bd 9b64 92bd
00000160: f21b 2c3d 64c6 aebd c86d b53d 2c53 60bd
00000170: ddb3 b83d 5da4 48bc f4ae eabc 2c98 6e3c
00000180: 56df 343e 7768 35be 06be b3bd 5cee f93c
00000190: fc79 5cbd 37d2 393d be4e 50bd 4ffa 663d
000001a0: 312b e03d 3345 cf3b 5230 5a3b a711 bfbd
000001b0: c886 e2bd 0b39 303e 4620 f23d acfc 4d3e
000001c0: 8e53 37be 7898 bc3c b956 a83c a6f6 78bd
000001d0: bbe7 2f3e 199f e2bd 4556 ffbd 2165 d3bd
000001e0: e00d 18be da37 973c 06a8 113e 7da0 643d
000001f0: 4022 17be 265f 33be db49 a6bc 4a98 d43d
00000200: 4091 363e bef5 5f3e 078d c33d da58 cebd
00000210: 6460 163e 5de5 653d ab37 2c3e 9de1 3fbe
00000220: a6f8 233e 04c9 cb3d 8169 073e 30ab 4ebd
00000230: 91fe 83bd 0742 0bbb f6ea cfbb 7ebd de3d
00000240: d7db 0dbe 9703 98bd 1fcc aa39 ed51 a43c
00000250: 4210 b0bd fbbd 28be f614 103e 9d69 7bbd
00000260: c5de 2abc 43f2 bc3d 11b7 b8bd 4f59 adbd
00000270: 83e8 bb3b ba9b a6bc cdef 8c3d 532f adbd
00000280: b2b2 d63d 92f9 60bc 3a73 66bc fe33 a8bc
00000290: 2426 06bd 4f53 c3bd 8d74 ef3d 09a2 bc3d
000002a0: c1b2 763d 6805 fb3c fe9d 2e3e 2097 f43c
000002b0: 0e34 48bd e1c6 bebc f9a0 b43d 44ba 50be
000002c0: 8175 fa3d eb7e 11be afb5 cdbc 11f3 05be
000002d0: 2131 763d fc0a 1cbc 285d ebbd 441b 9fbb
000002e0: 8755 01bd a7f2 1c3e 4cb6 dc3c a626 f63d
000002f0: c631 123d 8a69 683b b71d 5cbd 3d5c f1bd
00000300: 682c cabc 1478 e73d d7c2 263e 0ab1 c2bd
00000310: 8dfd 21be 0049 143e a1d1 71be 4f91 25be
00000320: f10b 45be 1adb 13be a7e0 99bd 2c02 a63d
00000330: d168 90bd d042 503e 7acd 053e 7384 01bd
00000340: b38a 6bbc ab3f 0b3e a846 613d 5950 423a
00000350: 9cad 3cbe efb3 00be 1bd7 453c 984d c43d
00000360: 6534 92bd cacc 49bb 9f8e 4dbe e398 0b3e
00000370: 7533 86bd 355d 10be 13fb febd 77f8 033e
00000380: 9b7e cd3d 457a 1bbe 70d1 97bd 5615 853d
00000390: 9295 e43d dcca d83d 3964 7e3d 60d5 b3bd
000003a0: 3b46 15bd 3306 593d ca0c e93c a223 50be
000003b0: e7be 9bbd 9118 423d 00f5 363d 341a 163d
000003c0: 3177 813d 27d9 713c b6c3 19be 42be 163d
000003d0: cf60 293e 1191 f53c 160b 323c 2d5b 72bc
000003e0: 90f3 9dbd 188f 83bd b161 3cbe 46dc 21be
000003f0: f1f1 06be 3387 1abe 0010 853d efca 2ebe
0.1175875 0.023254516 -0.033521302 -0.103331685 0.058189306 0.06804029 -0.18178308 0.18053846
0.027677502 -0.015082189 0.08621746 0.115612715 -0.10550138 -0.12004729 -0.00457877 0.09073091
-0.048635457 -0.0433704 -0.21760729 -0.040497024 -0.105250016 -0.1320471 -0.07199449 -0.13305895
-0.09368492 -0.06007383 0.006546641 0.16414937 0.042006806 0.015566062 -0.16786607 -0.1645729
-0.007011501 0.09356232 -0.14206575 0.076426044 0.07308431 -0.09771561 -0.14099741 -0.05252668
0.14582975 -0.12885386 -0.1280624 -0.12911953 -0.08381618 0.07105128 0.06381235 0.022981495
-0.09732863 0.016067795 0.08207503 0.007761926 0.04549743 -0.16711974 -0.1973719 -0.069677375
-0.20074083 -0.09239426 -0.09906026 0.09494199 -0.02193662 -0.12311283 -0.15850122 -0.026856493
0.044725537 -0.017768385 -0.09409407 0.09707282 -0.04533735 0.15991333 0.1145376 -0.012975892
0.10761313 0.025327258 0.039940417 -0.07138994 -0.113829255 -0.13165653 0.066618025 0.049304143
-0.08623064 -0.07312453 0.0041443403 -0.0732009 0.0547399 0.13311909 -0.10552736 -0.07148095
0.04201884 -0.08533934 0.0885883 -0.05476682 0.09018681 -0.0122462185 -0.028647877 0.014562648
0.17663321 -0.17715631 -0.087764785 0.030509166 -0.05382727 0.045366492 -0.050856344 0.056391057
0.10945738 0.006325388 0.0033292961 -0.09329539 -0.11060864 0.1720926 0.11822562 0.20115918
-0.17902967 0.023021922 0.020549165 -0.060782097 0.17178242 -0.11065502 -0.124676265 -0.10322023
-0.14849043 0.01845925 0.14224252 0.055817116 -0.14759159 -0.17516765 -0.020298889 0.10380609
0.17828846 0.21871087 0.09548383 -0.10075541 0.14685208 0.05612694 0.1681811 -0.18738408
0.1601282 0.0995045 0.1322384 -0.050456226 -0.06445039 -0.0021249072 -0.006345148 0.108759865
-0.13853393 -0.0742256 0.0003257701 0.020058597 -0.08596851 -0.16478722 0.14070496 -0.061380018
-0.010429089 0.09225895 -0.09019292 -0.084643 0.0057345047 -0.020337928 0.06881676 -0.08456292
0.10483302 -0.013731377 -0.014065558 -0.020532604 -0.032751217 -0.09537374 0.11692152 0.09210593
0.060229067 0.030642226 0.17052457 0.029857218 -0.04887777 -0.023288192 0.088197656 -0.20383555
0.12229443 -0.14208572 -0.025111048 -0.13081004 0.060105447 -0.009524103 -0.114923775 -0.0048555452
-0.031575706 0.1532694 0.026942395 0.1201909 0.035692 0.0035463297 -0.053739276 -0.11785171
-0.024679378 0.113022 0.16285263 -0.09506424 -0.15819378 0.14480972 -0.23615123 -0.16168712
-0.19242837 -0.1443905 -0.07513552 0.08105883 -0.07051242 0.20337987 0.13066664 -0.031620454
-0.01437633 0.13598506 0.054999024 0.00074124854 -0.18425602 -0.12568639 0.012075211 0.09585112
-0.071389 -0.003079223 -0.20073937 0.1363254 -0.065527834 -0.14098056 -0.12450232 0.1288775
0.10033914 -0.15183361 -0.07412994 0.0649821 0.11161341 0.10585567 0.0621073 -0.087809324
-0.03644393 0.052984428 0.028448481 -0.20326093 -0.07604771 0.04738671 0.044667244 0.036646083
0.06321562 0.014761246 -0.15016064 0.036802538 0.16540836 0.0299764 0.010866901 -0.014792246
-0.077124715 -0.06423777 -0.18396641 -0.15806684 -0.13178231 -0.15090637 0.064971924 -0.170696

embedding.bias f4 [64]
00000000: 4227 59bd b490 ee3c 27f7 efbd 5a79 01be
00000010: 4637 62bd 5982 9bbd 17aa 97bd 5670 093b
00000020: c075 09bd 9ef6 08bd e7d1 0a3e dd06 00be
00000030: 5622 813d 68a6 b03d 9f84 423c 448a e23d
00000040: cc3c 3ebe 2d78 5abd eb56 2a3e 5a4d e93d
00000050: 7a9a d63d f135 193d 2eba da3d 9ae3 7e3d
00000060: b01e c93d 72f8 d0bd 30dd 243e 2eb8 0a3d
00000070: 1df7 a2bd dbec a7bd 1cb6 2cbe cf2e 4cbe
00000080: d7a4 5f3d 8c0d db3d 515a 1f3e e7d9 403e
00000090: b91d 123e b2c9 f5bd 05ad 2bbe f85e 953d
000000a0: 3abd 243e 6864 82bc 8ddf 34be a3fd 28be
000000b0: 440a 57be 517c 5bbe 4e86 10be 9389 573e
000000c0: f158 bf3d 831c 443e 23ba fdbd d593 b1bd
000000d0: 9efb c63c 9610 1fbe c365 173e d8c9 f4bd
000000e0: 6e4b 22be 3ad0 413d f69f bbbd 7eb4 21be
000000f0: ca7c 51bd e36d 06be 25dc c33d bf97 02be
-0.053015955 0.029121734 -0.117170624 -0.12643948 -0.055228494 -0.07593221 -0.07405489 0.0020971498
-0.03355956 -0.033438317 0.13556634 -0.12502618 0.06305377 0.086254895 0.01187244 0.11061528
-0.1857788 -0.053337265 0.16634719 0.11391707 0.10478683 0.03740496 0.10680042 0.062228777
0.09820306 -0.10203637 0.16100001 0.033867054 -0.07957289 -0.081994735 -0.16866344 -0.19939731
0.054600563 0.10695943 0.15561797 0.18833123 0.14269151 -0.12001361 -0.1676522 0.072935045
0.16087809 -0.015917018 -0.17663403 -0.16503005 -0.2100001 -0.21434142 -0.14113733 0.21048574
0.09343136 0.19151501 -0.123890184 -0.08670775 0.024289902 -0.15533671 0.14784913 -0.11952561
-0.15849087 0.04731772 -0.091613695 -0.15791509 -0.0511444 -0.13127856 0.095634736 -0.12753199

alpha_gru.weight_ih_l0 f4 [96, 64]
00000000: 0f5c 273e b734 4dbc c741 fdbd f2ae fb3d
00000010: e257 c33d 279e 913d 598c cf3c 1183 0dbb
00000020: b8d5 babd 8593 b6bb 682c fb3d 2b44 993d
00000030: 0736 c5bd dc4c ae3d 5a1c ac3d 7668 1b3e
00000040: f075 26bc 9aeb 72bc 5596 e8bd bf23 28be
00000050: dc61 f3bd e6dc 6fbd aa1a fc3d 2ca6 4fbd
00000060: e5b0 cb3d c7fd dcbd ae25 18be a527 dabd
00000070: 7e62 683d 66c7 23bd ce07 e5bd e74c 03be
00000080: 1920 0f3d c833 0dbe 3a16 4cbd e241 cd3d
00000090: b7dd 0bbd b864 3b3d 8199 3e3e 7808 91bd
000000a0: 0909 12bd c2e7 86bd 01e1 c9bd d0c0 3fbe
000000b0: a09d 123d 7e5d 903d 7e0a 013e bba0 7cbd
000000c0: 0366 f0bd 1aa7 3a3e 66bd efbc 940f 84ba
000000d0: c44f 64bd e8e3 d3bd 0b4d 9cbd 4ecc 99bd
000000e0: 46aa bb3c 7549 923d 9051 533e bc57 08bd
000000f0: 3c30 233d 3e73 2d3e ddf4 593d 141c 033e
00000100: 1574 e53d 1758 40be e5c1 2bbe d455 86bb
00000110: aab7 27be 80ac 193e 4fb6 bb3d fca4 1bbe
00000120: 329e b43b 4013 c73d c027 0f3e 42c2 d2bd
00000130: 8bf0 55bd 0e8a b43d 6088 513e 7944 2a3e
00000140: 19e5 2fbe 0c13 503e a489 afbd e734 fbbd
00000150: e9e5 2c3d 31cd 303d 24d9 263d 3456 2f3d
00000160: 3fe8 9c3c c588 e13d f014 9f3d 7e70 953d
00000170: 435e 293e 66b1 e0bd 12ea 233e f314 0ebd
00000180: 1b72 1e3e 979b f2bd 514f 68bd 645d 20be
00000190: 8686 88bc cec1 ba3d c3f1 cc3d 1313 93bd
000001a0: 2e0e ef3c dcbc ebba d881 483e 997d e7bd
000001b0: 8205 1cbe 6e5c f93d 22d0 423c 5cdb 28bc
000001c0: 7cee 3d3d f13c 28be d337 0f3e 6fb8 803d
000001d0: f106 41be c478 e5bc 3fa8 483e f45d 273e
000001e0: 8e52 cebd 7174 bebd a9e0 613a a94d 5a3d
000001f0: 89fc e83d 6d17 2f3d b8ab 983d 36a7 1bbd
00000200: fefa 1bbd f7b1 dfbd 9304 123c 9de0 30be
00000210: 136b 333e 9ad7 19be 6d47 d03d 315e c03d
00000220: 02fa 6b3c 3af4 5f3c 9d42 8f3d 64d8 273d
00000230: a8ae ca3d 5533 593e e137 ec3d bb69 523c
00000240: b2b4 a93d 6c4a 0ebd feee 1fbe 7445 51bc
00000250: 78ea 80bc debc cfbc dd92 6a3b 98ff b4bd
00000260: 39cc a93d c280 373e 566d 143d 9311 51be
00000270: 2a8e d7bd bff6 0bbe e27f 273e cac2 633a
00000280: 27af c53d a734 b5bb 0b0a fd3d aa8b ab3d
00000290: 8ef9 98bd f8ad c73c a63f 6dbc 2dba b2bd
000002a0: f3df 3fbc 47ee 48bd d79c c03d 2872 ee3d
000002b0: a082 25be cd4d f1bb fff1 213d 8077 123e
000002c0: efeb ed3d 642e 9e3d a309 09be c218 d0bd
000002d0: 6ff6 bb3d 37ac 2d3b 715e 103e dab5 efbd
000002e0: 536b 90bd 83a5 0f3e dcd9 2abe 2ed6 e2bc
000002f0: 9395 413e 67a3 91ba 01f2 f63c d7e7 b4bd
00000300: f9ec 9f3d b118 fd3d 2772 a63d 30c4 3cbe
00000310: f165 c6bd 2e31 193e f5df cbbd bf53 ef3d
00000320: 6b5d 2abc 0e5b 18be 0b47 f83d 4c76 efbd
00000330: f816 a8bd 341f 27be e5ea acbd a0f4 e6bd
00000340: b0ca 3fbd 4d2b 0d3d a134 913d 1101 113d
00000350: 78e1 45bd 1bc7 4abc 5b0a 39bc 1f94 0bbe
00000360: 57b7 073e d8b0 473e 09c5 b33c 8657 243d
00000370: 18a6 eb3d c26e 7abd 82de 3e3e b654 dbbd
00000380: 4d5c 0f3e 670d 893d 0065 1cbe fed6 30bc
00000390: 7874 86bd 2b56 40be 7632 c63d cae5 54bd
000003a0: 3a8c ae3d b3ae e8bc 5fde d23d 73ab 87bb
000003b0: 029e 89bd d892 293e 15d4 0abe ef0a d6bd
000003c0: 328b 60bd 1a92 b53d 551f 583d 9036 7d3d
000003d0: 2d98 973d f661 2dbd 3838 2cbe e660 92bd
000003e0: ac27 5f3e de23 bf3d 7666 51bd 7f6a 653c
000003f0: 3725 ecbc 9e87 ec3d 3019 1cbe c3bd ad3d
0.16343711 -0.012524775 -0.12366062 0.122892275 0.09538247 0.07110243 0.025335478 -0.0021593014
-0.09122795 -0.005571785 0.12264329 0.07483705 -0.096294455 0.085107535 0.08403845 0.15176567
-0.010159954 -0.01482668 -0.113567986 -0.16419886 -0.118838996 -0.058560275 0.12309773 -0.050695583
0.09945849 -0.10790592 -0.14858124 -0.10652093 0.056734554 -0.039985083 -0.11183129 -0.12822305
0.03494272 -0.13789284 -0.049825884 0.10022332 -0.03414699 0.04575035 0.18613245 -0.070816934
-0.035653148 -0.06587173 -0.09857369 -0.18725896 0.035794854 0.07049082 0.12601659 -0.061676722
-0.11738207 0.18227807 -0.029265117 -0.0010075443 -0.055740133 -0.10346204 -0.07631882 -0.07509671
0.022908341 0.07142917 0.20636582 -0.033286795 0.03984092 0.16938493 0.053212035 0.1280368
0.112037815 -0.18783604 -0.16773184 -0.004099587 -0.16378656 0.1500721 0.09165632 -0.15199655
0.0055120224 0.097204685 0.13980007 -0.10290958 -0.052231353 0.08815394 0.20462179 0.16627683
-0.17177238 0.20319766 -0.08571175 -0.1226595 0.042211447 0.043164436 0.040734425 0.04280682
0.019153712 0.11012415 0.077676654 0.07296847 0.16539864 -0.10971336 0.1600726 -0.034687947
0.15473215 -0.11846083 -0.056716267 -0.15660626 -0.016665708 0.091189966 0.1000705 -0.071813725
0.029181566 -0.0017985362 0.19580781 -0.11303253 -0.15236476 0.12175833 0.011890443 -0.010306206
0.046370015 -0.16429497 0.13986139 0.06285178 -0.18850304 -0.028011687 0.19595431 0.16344434
-0.1007434 -0.09299553 0.0008616546 0.05329672 0.11376292 0.04274695 0.07454628 -0.03800126
-0.03808116 -0.10922616 0.008912223 -0.17273183 0.17521314 -0.15023652 0.101698734 0.093929656
0.014402868 0.013669068 0.06995127 0.04097785 0.09896594 0.21210988 0.115340956 0.012842591
0.08286418 -0.034738943 -0.15618512 -0.012772907 -0.015736803 -0.025358614 0.0035793104 -0.08837813
0.082909055 0.17920211 0.036237083 -0.2041686 -0.105251625 -0.13668345 0.16357377 0.00086883886
0.09652548 -0.0055299583 0.12355431 0.08376248 -0.07469474 0.024374947 -0.014480507 -0.087269165
-0.0117111085 -0.049055364 0.09404915 0.11642867 -0.1616311 -0.007364011 0.039537426 0.14303398
0.116172664 0.07723692 -0.13382582 -0.10160972 0.09177863 0.0026500353 0.14098527 -0.11704607
-0.070517205 0.14027981 -0.1668467 -0.02769002 0.18904714 -0.001111132 0.030144693 -0.088332824
0.07808871 0.12358225 0.081272416 -0.18434215 -0.096874125 0.14960167 -0.09954826 0.11685895
-0.010398249 -0.14878485 0.12122925 -0.11692485 -0.08207506 -0.16320497 -0.0844324 -0.11277127
-0.046824157 0.034465123 0.07090116 0.035401408 -0.048310727 -0.012376572 -0.011293973 -0.13630722
0.13253532 0.19501054 0.02194454 0.04012253 0.11506289 -0.061140783 0.18639567 -0.10709517
0.14000054 0.066920094 -0.15272903 -0.010793446 -0.065651834 -0.1878287 0.096775934 -0.051976956
0.0852284 -0.028403616 0.1029632 -0.0041403114 -0.06719591 0.16559923 -0.13557465 -0.10451304
-0.054820247 0.08865757 0.052764256 0.061819613 0.07402072 -0.04232975 -0.16818321 -0.07147388
0.21792477 0.09333013 -0.051123105 0.014002441 -0.02882634 0.115493044 -0.15243983 0.0848346

alpha_gru.weight_hh_l0 f4 [96, 32]
00000000: 1c32 0f3e 6dff 873d 8c2c 243d e969 bfbc
00000010: e3c6 ce3c 42a9 36be 28dd 823d 1c7c b83d
00000020: e41f dabd 71f4 c6bd fe3c 843d 8f65 fd3d
00000030: 77ec cdbd c94b 023a 9bd8 debd 8de6 91bc
00000040: ced6 31bc 37f5 053e a750 62be 3452 02be
00000050: 5f9f cdbd 12d0 18bb 823d cb3b 048d 90bd
00000060: b228 14bd f1d3 10bd 906d 4a3e ca0f e63d
00000070: 66aa 3fbd 1373 b8bd 36c5 403d 0967 513e
00000080: 9da5 143e fccf d4bc 02e0 f93d 1d06 0bbe
00000090: 5696 7ebd caf5 943c 9a04 0dbe 76f0 983c
000000a0: f596 c33d f885 cabc bc98 933c 6c51 3ebe
000000b0: 785d 74ba 748a 9dbd 6048 653d 1c29 f2bd
000000c0: 3278 413d 7bc0 bb3c 9b90 253c 79e2 063d
000000d0: b9db d33b 6f6c d3bd c134 863d 9af7 033e
000000e0: 87bc ad3c 26ae 54be 1768 8ebd dea0 36bd
000000f0: 90a9 c5bb d7de 1abe 9066 1e3e 7190 eabd
00000100: 736d 14be 779e d2bd 52d1 dbbd 8e36 0ebe
00000110: b470 a13d 590f 1dbe 0032 0cbe e4e1 ab3d
00000120: c5ad 9dbd 84c7 a93d d7cf 8fbd 1176 833d
00000130: 35ff 3e3c 9f14 033e 5264 e73c 20c2 a63c
00000140: 126e 4b3d 6bb5 093e 4cff 16bc f807 943d
00000150: cfda 2fbd cabd c13d 0c02 7ebd 0d58 143e
00000160: 63a4 a33d 3cfe 003e 9cd6 c93d ab60 573c
00000170: 737d f73d 1193 59bd 5b1b 13be 0202 09be
00000180: 8590 ef3d 180e 5dbc 090c cf3d 9497 cf3c
00000190: d127 bbbd 01bc 433a df4f 0b3e 21cd fc3c
000001a0: 653d 243e 33a0 ee3d c712 14bd 943f 2b3e
000001b0: 6ee4 143e 13b6 4bbd 14ad b5bd 9568 37bd
000001c0: 2dbf 99bd 4376 263e 9997 4bbe 6372 56bd
000001d0: e38e 033e d48b a3bd f5e5 393e de90 7b3d
000001e0: 7ea8 dbbc b228 0f3e ab74 0cbd a2b7 febd
000001f0: a4eb c23d a25b 39be 9d53 fdbd 6f85 9fbd
00000200: 8de5 ed3c 07ce e33d 6b33 6e3d 2a68 e93d
00000210: 58d5 94bd 4933 fa3d 085a d0bd 5b41 02be
00000220: b11b 2c3e 93aa b23d 8596 2f3c b1e0 9dbd
00000230: 03dc 0dbe 7b4d b93d faf9 3cbd e9aa f63d
00000240: 5e95 0ebe adac 08bd e31a 233a bb2f 00be
00000250: 2d1f 2fbd 6634 193d 10e1 ac3d 8618 a23d
00000260: e4b9 aabd cf5f dabd f585 83bc 4635 303e
00000270: 9e2e 403e dd09 42bd 95b4 933c 1c29 8a3d
00000280: 7956 fbbd 2f90 703d ba8b bfbd 2210 a23c
00000290: cda5 ed3c d803 dbbd ebc7 2cbd 0fd1 203e
000002a0: e502 e43d 7337 343e a4a7 343c ea63 ec3a
000002b0: 7005 d6bd 4754 e4bb 077f 49be d36f 5b3e
000002c0: 5e6a a53b 777d 503e cf0a 213c efc2 b7bd
000002d0: 69c0 3a3e 822c 913d e438 303d a04c 37be
000002e0: 7560 c93d 8fe4 613d d007 8d3d a846 06be
000002f0: 875d 723d ef90 1f3c 9f52 723c 28dc 9cbc
00000300: 70a4 f3bc 9cb3 89bd bd61 a73d d5b6 9fbd
00000310: 8202 363a 70c8 cd3d 3fed fb3d 97d5 213e
00000320: f3ab 543a 4fd7 0cbe f39c 7a3d fa74 00be
00000330: 55ec e43d 160e 393d 674f 8cbd f959 5abe
00000340: c159 15bd 621a cbbd 8824 9a3d da67 fc3d
00000350: 0aaf 333d d8e0 0f3d 6100 a2bd b290 393e
00000360: 0ad0 08be 3778 ef3c d378 99bd 52af 433e
00000370: b40f 11bc 90f3 443d d853 1e3d 9834 0d3e
00000380: 736f bfbd fccb 2bbe db2a af3c 172f 153e
00000390: 109e 74bb ceeb 39be 750e 523e 7815 27be
000003a0: ded9 2f3d 9dcc a93d d4cc 7a3d a5b6 bcbd
000003b0: 2e97 90bd e107 03bd 95ab 9cbd df59 b6bd
000003c0: 6399 ed3d 1a76 94bd 36e6 0d3e 1741 ba3d
000003d0: 7d6f c6bd 917a 123e 58a3 3c3c e27e 5ebd
000003e0: ae85 23bd b777 f33d 5bfb 923c b061 383e
000003f0: 52be be3d c309 0abe fd9f 153e 8e68 10bd
0.13983959 0.066405155 0.040081546 -0.023365932 0.025241321 -0.17838004 0.063898385 0.09008047
-0.10650614 -0.09714592 0.06456946 0.123728864 -0.10054868 0.00049703993 -0.10881158 -0.01781013
-0.010854436 0.13081823 -0.22101079 -0.1272667 -0.10040163 -0.002331738 0.0062024007 -0.070581466
-0.036171623 -0.035358373 0.19768357 0.1123348 -0.046793364 -0.09006324 0.047063075 0.20449461
0.14516301 -0.02597808 0.12200929 -0.13576551 -0.06215509 0.018183608 -0.13771287 0.018669348
0.09550277 -0.024722084 0.018017165 -0.18585747 -0.0009321789 -0.076924235 0.055977225 -0.11824247
0.047233768 0.02291893 0.010105277 0.032930825 0.006465402 -0.103234164 0.06553031 0.12887421
0.02120806 -0.20769557 -0.06953447 -0.04458701 -0.0060321763 -0.15124069 0.15468812 -0.11453331
-0.14494877 -0.10284131 -0.10733284 -0.13887998 0.078828245 -0.15337886 -0.13690948 0.083926946
-0.076991595 0.08290008 -0.07022064 0.06419004 0.011657526 0.12800835 0.028246079 0.020356238
0.049665518 0.13448112 -0.009216141 0.072280824 -0.04293328 0.094600275 -0.06201367 0.14486714
0.07990339 0.12596983 0.098553866 0.013145606 0.120844744 -0.05311877 -0.14365904 -0.13379672
0.11697487 -0.01349213 0.101097174 0.025340833 -0.09138454 0.00074666744 0.13604687 0.030859532
0.16039045 0.11651649 -0.03615072 0.16723472 0.14540264 -0.049734186 -0.08870903 -0.04477747
-0.07507167 0.16256051 -0.19882049 -0.05235518 0.12847476 -0.079856545 0.18154128 0.061417453
-0.026813742 0.13980368 -0.03429095 -0.12437369 0.09517601 -0.18101361 -0.123694636 -0.07789122
0.029040122 0.11123281 0.058154505 0.11396821 -0.072672546 0.12216813 -0.10173422 -0.12720244
0.16807438 0.08723941 0.010717039 -0.07708872 -0.13853459 0.09047981 -0.046136834 0.12044317
-0.13924167 -0.0333678 0.0006221963 -0.12518208 -0.04275434 0.037403487 0.08441365 0.07914834
-0.08336237 -0.10662805 -0.016055087 0.17207822 0.18767783 -0.047372688 0.018030444 0.06746122
-0.12272353 0.058731254 -0.093528226 0.019783083 0.029009724 -0.106940925 -0.042182844 0.1570475
0.111333646 0.17599277 0.011026297 0.0018035148 -0.10450256 -0.0069680545 -0.19677363 0.21429376
0.0050480803 0.20360361 0.009829237 -0.089727275 0.18237461 0.07088567 0.043023005 -0.17900324
0.09832851 0.05514961 0.06886256 -0.1311289 0.059171226 0.009739145 0.014790206 -0.019147947
-0.029741496 -0.06723711 0.08172939 -0.07798544 0.0006943123 0.10047996 0.123011105 0.15804134
0.00081127806 -0.13754009 0.061184835 -0.12544623 0.11177889 0.04517945 -0.06851082 -0.21323384
-0.03646255 -0.099171415 0.07526499 0.123244956 0.043868102 0.035126537 -0.079102285 0.18121603
-0.1336061 0.029232128 -0.074937485 0.19109848 -0.008853842 0.04808384 0.03865418 0.13789594
-0.09347429 -0.16777033 0.02138274 0.14568745 -0.0037325658 -0.18156359 0.20513327 -0.16316783
0.042932384 0.0829098 0.061230496 -0.09214524 -0.07060085 -0.031989936 -0.07649914 -0.0890386
0.11601522 -0.072490886 0.1385735 0.09094446 -0.096892335 0.14304568 0.011513554 -0.054320224
-0.03992241 0.11888068 0.017942121 0.18006015 0.093136445 -0.13480286 0.14611812 -0.03525596

alpha_gru.bias_ih_l0 f4 [96]
00000000: 57cf 4cbd 93af 92bd cab4 993d 5882 2c3d
00000010: 1e4e b839 60fc 063e 92dc 9cbd 3dcc 073e
00000020: c689 acbd 9685 033e bd3f 1c3e 6810 9fbd
00000030: 397d d8bd 0c4c da3d fd83 e03d 4b74 a7bd
00000040: fe7a b6bb 2fb3 1dbe ab94 453d 757f 1bbd
00000050: 3999 443c 20a0 373e 4502 3fbd 1ea1 b4bc
00000060: 8979 b4b9 d8e1 243d 0abe 2c3e dd8e d7bd
00000070: e81a cd3b d8da 71bb 474b 3c3d bb51 053e
00000080: a3ff 633c cfe6 23be 74ec 23be 51c6 013e
00000090: 8ce3 36be f4a6 553d 30a6 f43c 4fa5 6a3d
000000a0: e191 87bd 4087 d0ba 9384 013e fa8f 00be
000000b0: ae9a 28be 2b9a 52be cc39 a0bc dac4 63bd
000000c0: 5814 0e3e 837e 36be 1a9b c3bd 2177 53bd
000000d0: f2ef 1cbe ee3a 80bd a7d1 c23c 433d e43a
000000e0: 1c42 28bd 91f8 c8bd 29ca 32be dc93 a2bd
000000f0: b6c8 9f3d 2c5b 283e 748b e03d 4e8a 18be
00000100: df4a 46be 17de 44bd 942f 293d 6f25 283e
00000110: ffb7 80bc a07b 31be 9ad8 5c3e ac79 103e
00000120: 630e 3f3d 2e79 dabc 3334 6cbc 306b 273e
00000130: 4252 07bd ef21 1bbc 9419 bf3c c106 96bd
00000140: 2a91 44be d95d 0a3e 544d ba3d 0862 f0bd
00000150: 3459 ecbd 4555 79bd bfa4 023d 9e7d 37be
00000160: 2f77 eb3d 4396 a23d 01d3 373e 56fa cfbd
00000170: 086a ff3d 66c3 2ebe 2dd0 463e 6fd7 16be
-0.050002422 -0.071623944 0.07505186 0.042116493 0.00035153417 0.13182211 -0.07659258 0.13261504
-0.08424716 0.12843928 0.15258689 -0.07766801 -0.10570759 0.10659036 0.10962675 -0.08176478
-0.005568861 -0.15400384 0.048237484 -0.03796335 0.011999422 0.17932177 -0.046633024 -0.022049483
-0.00034422826 0.040254444 0.16869369 -0.10525296 0.006259311 -0.0036904123 0.045970228 0.13019459
0.013915929 -0.16006015 -0.16008168 0.12673308 -0.1786024 0.052161172 0.0298644 0.057286557
-0.06619621 -0.0015909448 0.1264823 -0.12554923 -0.16465256 -0.20566623 -0.01955881 -0.055607654
0.13874948 -0.17821698 -0.09551068 -0.051627282 -0.15325907 -0.0626124 0.02378161 0.0017413277
-0.04107867 -0.09813035 -0.1745993 -0.07938358 0.078019544 0.1644103 0.109640986 -0.14896509
-0.19364499 -0.048063364 0.04130514 0.1642053 -0.015712736 -0.17332315 0.21567002 0.14108914
0.04664458 -0.026669111 -0.014416742 0.16349483 -0.03303743 -0.00946854 0.023327626 -0.07325507
-0.19196 0.13512363 0.090967804 -0.11737448 -0.11540452 -0.060872335 0.031895395 -0.17919013
0.11497342 0.079388164 0.17951585 -0.1015517 0.12471396 -0.17066726 0.1941535 -0.14730619

alpha_gru.bias_hh_l0 f4 [96]
00000000: 6898 28be 7e42 513d 2b2e 06be dad8 0cbe
00000010: 640d 5b3e b681 4c3e ae82 893d 0e67 0dbd
00000020: 03c7 aabd ed2d 05be ed8e 0a3e a894 f83d
00000030: 8f21 4b3e 4fac e0bd 2214 223e 1cc3 56bb
00000040: 9e66 5b3e a0fc 40be 650f d1bd 49ba f6bd
00000050: 00c4 2ebd f04a 4d3e 96f0 2c3d a2fa bebd
00000060: 73f4 86bd ee5d 213e 863e 22be 86a8 04be
00000070: 97f4 8f3d 9bfb 4c3e fb8d d5bd 6eee dd3c
00000080: 54d1 fbbd 1946 ddbd a507 47be 2f11 0e3e
00000090: 026a 743d d031 4fbd 5221 dc3d 2760 bc3d
000000a0: 305c 813d 17e6 cfbd f481 76bd ac29 e9bd
000000b0: 8910 c93d e86d 29be 2927 de3d 233e fbbc
000000c0: 4c03 1fbe cc10 debc 249c 3b3d f058 bb3d
000000d0: 3fb9 683c 48ba 95bd b38e 6abe df8f 833d
000000e0: 8182 edbd 35b9 e73d 56d3 4bbe ec5e e83d
000000f0: c2fe 29be 8432 0c3e 59dd 28bd af80 d2bd
00000100: 629f 263e 5f70 0b3e 8235 f83d dcb6 4a3d
00000110: 3cd7 563e f2a3 33bc f6a8 6b3d 16cd 43bd
00000120: dc83 1fbe 6b31 3d3d c45c 443e 8844 22be
00000130: 1e90 4abe 4bba f73d dd6d c73d 608a 04be
00000140: 4d34 43be 0fe6 373d cf79 323e bc80 a5bd
00000150: 4c61 073e e14e 513e d56a 233e 9131 7dbd
00000160: 4beb 9e3d 1aaf 0a3e fae0 503d 8e89 173e
00000170: 27cb 21be 121a 253e 3527 4b3e 72e9 1ebe
-0.16464388 0.051088803 -0.13103549 -0.13754597 0.21391827 0.19971356 0.06714378 -0.03452211
-0.0833874 -0.130058 0.13531084 0.12137729 0.1983702 -0.10970365 0.15827993 -0.0032770103
0.21425864 -0.18846369 -0.102080144 -0.1204725 -0.04266739 0.20048118 0.042221628 -0.09325148
-0.06589594 0.15758488 -0.15844163 -0.12954912 0.07029074 0.20017855 -0.10427471 0.027091231
-0.122957855 -0.10804386 -0.1943651 0.13873743 0.05967141 -0.050584614 0.10748543 0.09198027
0.063164115 -0.10151308 -0.060182527 -0.113849014 0.09817607 -0.16545832 0.10847313 -0.030669278
-0.15528601 -0.027107619 0.045803204 0.09147823 0.014204322 -0.07310921 -0.22905998 0.064239256
-0.11597157 0.11314622 -0.19904837 0.1134623 -0.16601089 0.13691145 -0.04122672 -0.10278451
0.16271737 0.13617085 0.12119581 0.049490795 0.20980543 -0.010964381 0.05753418 -0.047803007
-0.15577644 0.046189707 0.19176012 -0.15846455 -0.19781539 0.120960794 0.09737752 -0.12943411
-0.1906292 0.044897135 0.17429279 -0.08081195 0.1322071 0.20440246 0.15958722 -0.06181485
0.07759722 0.13543358 0.050995804 0.14798567 -0.15800153 0.16123226 0.19839175 -0.1551874

alpha_attn.weight f4 [1, 32]
00000000: db6b d13d c11e a83d 03e4 dcbd a8b4 1e3e
00000010: 93ac 3bbe b746 613e f628 6cbc 25c2 24be
00000020: 934d 5d3e 1510 1b3e fef4 58be d030 fdbd
00000030: 03f7 023e b450 4abe 81c7 6cbe 7078 c93d
00000040: 08cf fa3d 16fd d53d 4bb6 2abe 84dd 0abe
00000050: d67f b4bd 2cad e2bd 0107 29be 0390 2bbd
00000060: c70b 06be 7335 2abe f563 05be 7298 d7bd
00000070: d1f5 133e 6897 433d a382 763a dbcd 5cbe
0.1022565 0.08208991 -0.10785677 0.15498602 -0.1832755 0.21999632 -0.014414063 -0.16089685
0.21611623 0.15142854 -0.21187207 -0.12362826 0.1278954 -0.19757348 -0.2312298 0.09837425
0.12246519 0.10448663 -0.16671102 -0.13561064 -0.08813445 -0.11068186 -0.16506578 -0.041885387
-0.1309043 -0.16621952 -0.13026412 -0.105271235 0.1444924 0.047751814 0.00094036217 -0.21562903

beta_gru.weight_ih_l0 f4 [96, 64]
00000000: 2c1b 49bc 0c8b c5bd d479 403d e584 e53d
00000010: 576e b63c 9921 d83d adb3 f5bd a69c 013e
00000020: fe83 313e c32d 21be e0cb 303e 1b0e 9c3d
00000030: 67c9 083d e461 c13d 6a9a b9bd c10b 8dbd
00000040: 3025 f13b 3b2b d53b 0b70 d73d 94b2 b33d
00000050: 74cf 263e 9b2a 333e 009b cd3d 08e3 d83d
00000060: f371 c53d dc4b 9ebd fc99 a5bd ca43 afbd
00000070: 205e 453e 4063 913d 4c8c 283e 3865 cbbd
00000080: 0754 2ebd 35e6 973d 874d 3dbd 0fc1 c83d
00000090: 4782 693c a0d8 4bbe dc7a 8f3d 81c5 07bc
000000a0: 98b4 473d f79d e73d 3cce 87bd d34b a63d
000000b0: b7a2 5abe 326b 993d 7a11 fdbd d41b 893d
000000c0: 3a62 f5bd 30ed afbc b630 5a3d 1171 c23b
000000d0: 5f37 c43c 9a3b 13be c807 82bd 89cd 00bd
000000e0: d05e 25bd bba8 72bd c8df acbc 7fba 163e
000000f0: 1bdf bbbd b309 05be ea0b d33d 73c0 aa3d
00000100: 15cb f23d 4534 5cbd 7e78 8d3d a0a2 3cbe
00000110: 3b0e 5e3d 290a 1fbd c611 b43d c254 29bd
00000120: 24b9 3e3e fc5e 17be f4ea 083e 8ec4 44be
00000130: 5303 4d3e 1d06 b3bd 033c 903d 726b 223e
00000140: 3723 10bd aab2 3a3e afcd 59bd 7f30 03bd
00000150: 606c 5ebd 2828 6b3d c750 f9b9 3ccb db3c
00000160: e439 ed3c e075 cabd c628 6cbd 422b 39bd
00000170: 77b6 c6bd 451a 2bbe 20bd 3fbe 66b1 cd3b
00000180: 3913 14be e7bc 85bd 5896 163e d084 b6bd
00000190: 393a 0fbe 6100 fcbd eba1 013e 018c 07be
000001a0: f588 a63d 1a54 1dbc ad95 0ebe ef10 40be
000001b0: 5807 c0bb dee2 e93d 0422 2c3d 99ca 463e
000001c0: 0924 a83d 67d1 a2bd d78c 0b3e 5cd1 7ebd
000001d0: 2475 8ebc 8c25 6a3e 926a 29bd f822 82bd
000001e0: f534 503e 9351 c0bd f0c3 913c bd4c b0bd
000001f0: fc27 ff3d e21d 50bc 40ba 39bb a94e 94bd
00000200: 69cc 2bbe a34b dabd f846 11be e21d dbbd
00000210: 2829 9b3d 0190 4cbc b5df 87bd cb0d 2ebe
00000220: 900c bfbd 6acd 1dbe 1b45 a53d 4dfa 4ebd
00000230: 7276 e93d a89b a8bd f450 483e 9b96 133e
00000240: fc41 00bd 4ba9 35bd 2aea 04bd 9e92 433e
00000250: a396 11bb 2e10 393e a4b4 553d 54cf 1ebe
00000260: 4e12 21be 6f4a bebd 4b83 f83c db87 223e
00000270: 43c9 efbd 89a3 923d 2af6 ddbd d59e 8ebc
00000280: fe9e c83c 48c2 87bd 2ec2 6fbd 7d36 8a3d
00000290: 4c97 aebd 79b3 28be d333 02be 2d7b 0d3d
000002a0: e77c 7f3c c87a 083e 0761 37be 3698 943d
000002b0: aa3f a43d a9ad dbbd 7706 3ebe acf3 5dbd
000002c0: f073 973d 81f6 9bba ecad 133d 6dd5 313d
000002d0: c0c2 6abd db25 1f3e 2c36 0ebe e24c ccbc
000002e0: ca79 a73d c73c b3bd 44b5 363e fd6d f7bd
000002f0: 72a6 96bd 01ba f93d a1a6 5fbd 9d53 29bc
00000300: 776a 25bd 5948 d5bd 0921 123e 724a 953d
00000310: 9b92 963b 6dee 27be 8c25 edba 80d5 0c3e
00000320: 5eaa e3bd 2584 063e a01b 423d 3231 1b3e
00000330: de39 81bd a57b 5a3d 4a4d 12be 66d8 873b
00000340: 4d9d 03be 3745 9fbd 7063 85bd 1eb8 8ebd
00000350: 9a6e 013e 66e3 c13d 0bf4 0dbd 6858 31be
00000360: 9911 893d ff61 dabd 4544 56bb 394c 1fbe
00000370: 64bb 2fbe d6d2 c2bd d51b 4bbe 865d 1dbd
00000380: 19fe f53d 58e5 123e 23e8 0c3d 54f7 0abe
00000390: b00f c3bd abde 973b 0044 c43d 9a0d eabd
000003a0: 10a3 703d 16eb 32be c6a9 a53d 912e f13b
000003b0: 71d1 27bd cd15 dc3d 9b37 2d3e f19f 8d3d
000003c0: 4019 02be abf0 9b3d 2e20 90bd a675 183e
000003d0: 3a7c f1bc b4cd fabd a995 1fbe 12fe f13d
000003e0: 915e d5bc 0c21 9e3d aca4 043b ad00 043d
000003f0: d3ae 463d 5256 50be e1fb 32be 5c94 bb3c
-0.012274545 -0.09645662 0.046991184 0.11206988 0.022269411 0.10553283 -0.11997161 0.12657413
0.17335507 -0.15740113 0.17265272 0.07619878 0.033395197 0.09442499 -0.09062655 -0.068870075
0.0073591694 0.0065053976 0.105194174 0.087742954 0.16290075 0.17496721 0.100393295 0.10590178
0.09640875 -0.07729313 -0.08086011 -0.085578516 0.19274187 0.070990086 0.16459769 -0.09931415
-0.042560603 0.074169554 -0.046216514 0.09802448 0.014252252 -0.19906855 0.070058554 -0.008286835
0.048756212 0.11309426 -0.06631133 0.08119931 -0.21351133 0.07491149 -0.12356849 0.06694761
-0.11981626 -0.021475405 0.05326911 0.0059338887 0.023952184 -0.14378205 -0.063491404 -0.031446014
-0.040373623 -0.059242945 -0.021102801 0.1471958 -0.09173413 -0.12991981 0.10305007 0.08337488
0.11855141 -0.053760786 0.06907748 -0.18421412 0.05421279 -0.03882805 0.087924525 -0.041340597
0.18625313 -0.14782327 0.13370878 -0.19215605 0.200208 -0.087414004 0.07042696 0.158613
-0.035189833 0.18232217 -0.05317467 -0.03202867 -0.054302573 0.057411343 -0.00047553165 0.026830308
0.028958268 -0.09885764 -0.057656072 -0.04520727 -0.09702771 -0.1670924 -0.18724489 0.006277251
-0.14460458 -0.06530171 0.14705789 -0.08912051 -0.13987054 -0.1230476 0.12659423 -0.13237001
0.08131591 -0.009602571 -0.13924284 -0.1875646 -0.0058602504 0.114202246 0.042024627 0.19413222
0.08209998 -0.079500966 0.13627945 -0.06221138 -0.017389841 0.22865885 -0.0413614 -0.06354326
0.20332702 -0.09390559 0.017793626 -0.08608387 0.12458798 -0.012702437 -0.0028339773 -0.07241566
-0.16777195 -0.10658958 -0.14187229 -0.10699059 0.07576209 -0.012485505 -0.066344656 -0.16997449
-0.09328568 -0.1541039 0.080698214 -0.050531674 0.11399545 -0.08232814 0.19562131 0.1441292
-0.031312928 -0.044350903 -0.03244988 0.19098899 -0.002221503 0.18072578 0.052174225 -0.15508777
-0.15729639 -0.09291541 0.030336043 0.15872137 -0.117083095 0.07160098 -0.10837968 -0.017409721
0.024489876 -0.06628853 -0.058534794 0.06748674 -0.08524951 -0.16474713 -0.12715082 0.034541298
0.015593744 0.13328087 -0.17908107 0.072555944 0.080199555 -0.107264824 -0.18557154 -0.05418746
0.0739516 -0.0011899025 0.036054537 0.04341643 -0.057314634 0.15541784 -0.13887852 -0.024939004
0.08177526 -0.08751827 0.17842585 -0.120815255 -0.07355966 0.121936806 -0.05460227 -0.010334876
-0.040384736 -0.1041419 0.14270414 0.0728959 0.0045951135 -0.16399546 -0.0018092855 0.13753319
-0.11116479 0.13136347 0.047389627 0.15155485 -0.063098654 0.053340573 -0.14287296 0.0041456698
-0.12852974 -0.077768736 -0.06513107 -0.06968711 0.12639847 0.09467201 -0.034656566 -0.1731888
0.066928096 -0.106632225 -0.00326945 -0.1555642 -0.17161328 -0.0951287 -0.19834836 -0.03841927
0.12011356 0.143453 0.03440107 -0.1357091 -0.095244765 0.0046346984 0.095832825 -0.114283755
0.05874926 -0.1747249 0.08089022 0.0073602875 -0.040971223 0.10746346 0.16915743 0.06915272
-0.12704945 0.07614263 -0.07037388 0.1488863 -0.029478181 -0.12246266 -0.15584435 0.11816038
-0.02604607 0.07721147 0.0020239754 0.032227207 0.04850657 -0.20345429 -0.17478897 0.022897892

beta_gru.weight_hh_l0 f4 [96, 32]
00000000: 0d4a b0bc 2f43 9e3d 1696 83bd fb54 b93d
00000010: c08d d13d dd04 7cbc 486f bfbd 530e 08be
00000020: 9204 dbbd c353 613d 8f13 943c bfcb e73d
00000030: 546f 88bd 509d cc3d ca59 dfbd 2c07 e03d
00000040: 1113 56be ba0f a93d d5fb 17be fa2a 043e
00000050: 0a1d 4abe ff9f ccbd 74c9 07be 0603 d7bd
00000060: a459 913d fd2b af3c 7167 a33d 68ab 053d
00000070: 1e78 5ebe 681b d5bd 5cc8 983d 0903 04bd
00000080: 7c52 ca3c 4469 f53c d688 e5bd f208 843d
00000090: 12b5 9dbd 328f cc3d 9e67 1ebe 05e7 46bd
000000a0: 5322 633d 5642 f33d 4210 da3d aad8 63bd
000000b0: ffe4 c33d c3fb aa3d 3261 283e dc35 08bd
000000c0: c409 383d 5a64 40bd 9620 943d a997 083e
000000d0: b042 86bb 34c0 2bbc ddf5 b33d d90a 25be
000000e0: 3be3 a33d 0ab4 45bd 35b8 1e3e d487 ff3b
000000f0: 9682 debd 8c01 623c 06b7 c2bd 2a99 2bbd
00000100: 05df cbbc a412 e93d 82ec 2abd fbdf 833d
00000110: a00d 433e 9f3a 89bd 98df c23d 3160 28be
00000120: 3f0f 463c 76a8 2ebd 05fb fcbd 90b3 1ebe
00000130: 7447 94bd 079c 0abd aa48 6d3c 5f7b 64be
00000140: 36f3 803c 8e3e 1e3e 50bc 3fbe 6558 9a3c
00000150: 5ea6 11bd eace 143e b272 06be ad97 463e
00000160: 6092 63be d719 213e 914f 07be 8ef8 083e
00000170: fca4 b0bd c5ce 4d3e b395 a8bd a0b1 44bd
00000180: d47b 243e 41f4 e8bd 6f4d 5f3e cdbe 58be
00000190: 9fcd 213d 7714 d7bd 5c70 063e e14d 53bb
000001a0: 21c9 803d c9a5 eabc bc09 2fbe 7976 8abd
000001b0: c10a 0d3e 42bb 1d3d 837d ab3b fdaa 3d3d
000001c0: e707 3b3e 34d3 81bc 6007 4a3e ba90 aebb
000001d0: 15e6 d93d 02c6 ba3d 707a 8a3d eb44 6e3d
000001e0: fdf5 97bb 4d1e 8c3c 6248 dc3d 9c35 393d
000001f0: 1dc8 513e a240 c3bd 38f0 083e 7b1c a0bd
00000200: 70fb f0bc f75f ca3b 8212 01be 9089 023e
00000210: f1d5 e93d 9dd3 41be fc54 18be 4386 983d
00000220: 7c26 8d3d bffb 2e3d ac6b 203e 5289 bebd
00000230: c14f d03d b19f f2bd 9079 1cbe 2497 31be
00000240: f81e f33d f9f9 403d e163 9cbd 5588 393e
00000250: d73f 31be 8421 1dbe 9f47 47bd 6825 203d
00000260: 3dfb b03d fdfd d43d 478f aa3d d9b7 f0bd
00000270: 36ba 41be ea5f fbbd a8ca 323e e36f cdbc
00000280: 11e2 3a3d 6ce0 c3bc 5701 a93d a989 973d
00000290: 9e29 bc3b 6e28 a23c 3380 e4bd 500c b93d
000002a0: 61b4 433d ca09 87bd 1067 59bd 0ca7 2abe
000002b0: cec5 c83d 1690 223c 7f76 843d fbb7 31be
000002c0: 831f 983d 5df7 65bc d83d 48bd d44c 0f3e
000002d0: 5bd9 a53d 8daa c13d 1c01 0e3e 97b2 c5bd
000002e0: e3d5 64be ca5a f0bc a911 34bb 24c3 953d
000002f0: eaa9 333d 9b3e 393d fe78 923d 34fa e43d
00000300: 7b00 15be 70b5 e6bc 2e1c 63be 0257 383e
00000310: d36e 97bc 7da7 f3bb fd48 3e3d e968 ebbd
00000320: 8904 d63d f8c3 98bd 3a3d 0b3d 2fc5 453e
00000330: 3d92 8f3d fc17 c3bb 3365 393c 02b9 97bc
00000340: d424 3b39 a00a 853d cda2 11be 1415 e83d
00000350: 5f18 49be 9fc1 4b3c 6dde 2a3d 81ef da3c
00000360: e116 f6bd 188c 0ebd 0397 b5bc 50fb 57be
00000370: 8282 c9bd 836a 523d 9790 593d 67cc 73bd
00000380: c474 d0bd 1fd3 a4bd 6210 d63c 7f4c 4dbd
00000390: da1b cbbd 6b45 4b3d 5e47 62bd fba8 86bd
000003a0: 7fd4 263e a460 463d 7613 f6bd af7a f83d
000003b0: f631 163d 490d d83c c487 e43c 7af6 a43b
000003c0: c25e 08be 9d70 df3d d4f5 2c3d 7e0e 6ebd
000003d0: e652 19be 0926 053d efdb e93a a7d1 133d
000003e0: 8edb 34be fbf7 13be 6a31 0bbb ca0c cabd
000003f0: 9053 8bbc cc6b cabd f141 acbd e268 de3d
-0.021519685 0.07727658 -0.06425111 0.09049412 0.10232115 -0.015382019 -0.09347397 -0.13286714
-0.10694231 0.055011522 0.018075733 0.11318158 -0.06661859 0.099909425 -0.10905798 0.10938868
-0.20905711 0.08254953 -0.1484216 0.1290702 -0.1973764 -0.09991454 -0.13260442 -0.104986235
0.07097176 0.02138328 0.07978714 0.03263417 -0.21725509 -0.10405618 0.074600905 -0.032229457
0.024697535 0.029957421 -0.1120774 0.06447019 -0.07700552 0.0998825 -0.15469214 -0.04856016
0.055452656 0.11877887 0.10647632 -0.05562655 0.09565162 0.08348801 0.16443327 -0.03325449
0.04493119 -0.046970703 0.07232778 0.13339104 -0.0040973052 -0.0104828365 0.08787129 -0.1611742
0.08002325 -0.0482674 0.15499957 0.0077981744 -0.10864751 0.013794314 -0.09507565 -0.041894116
-0.024886617 0.113805085 -0.041729458 0.06439205 0.19048166 -0.06700634 0.095153034 -0.16442944
0.012088596 -0.042641126 -0.12352566 -0.15498185 -0.07240191 -0.033840206 0.0144826565 -0.22312687
0.015740972 0.1545355 -0.1872418 0.018840978 -0.03555905 0.14532056 -0.1312969 0.19393797
-0.22223806 0.15732513 -0.13213946 0.13376066 -0.08625218 0.20098408 -0.08231678 -0.04802096
0.16062862 -0.11374713 0.21806882 -0.21166535 0.039502736 -0.1050195 0.13128799 -0.0032242464
0.06288362 -0.028643506 -0.17093557 -0.06760878 0.13773634 0.03850866 0.005233468 0.046305645
0.18264733 -0.01584778 0.19729376 -0.0053273113 0.10639588 0.09119798 0.06761634 0.058171194
-0.0046374784 0.017104292 0.107559934 0.04521714 0.20486493 -0.09533812 0.13372886 -0.07817932
-0.02941677 0.0061759907 -0.12604716 0.12747788 0.11417759 -0.1892838 -0.14876169 0.074474834
0.06892106 0.042720553 0.15666074 -0.093035355 0.10171462 -0.11846865 -0.15280747 -0.17342812
0.11871141 0.047113393 -0.07636238 0.18118413 -0.17309509 -0.15344816 -0.048652288 0.039098173
0.0864167 0.10400007 0.08328109 -0.11753816 -0.1891869 -0.122741535 0.1746012 -0.025077766
0.04562575 -0.023910724 0.08252209 0.073993035 0.005742266 0.019794669 -0.111572646 0.090355515
0.047779445 -0.06593664 -0.053076804 -0.16665286 0.09803353 0.009922048 0.06467914 -0.17355339
0.074278854 -0.014036027 -0.048887104 0.13994151 0.08098098 0.09456358 0.1386761 -0.09653204
-0.22347216 -0.029340167 -0.0027476347 0.07312611 0.043863215 0.04522572 0.07151984 0.11180535
-0.14550965 -0.028162688 -0.22178718 0.18001941 -0.018485462 -0.0074357376 0.046456326 -0.114946194
0.10450084 -0.07459253 0.033993937 0.19313501 0.070103146 -0.005953787 0.011315632 -0.018520836
0.00017847429 0.06496167 -0.1422226 0.11332145 -0.19638203 0.0124363 0.041716028 0.026725532
-0.120160826 -0.034801573 -0.022166735 -0.21091962 -0.098393455 0.05137111 0.053116407 -0.059521105
-0.10178521 -0.08048081 0.026130859 -0.05012178 -0.09917422 0.04962675 -0.055243842 -0.06575199
0.16291998 0.048432007 -0.12015431 0.12132775 0.03666874 0.026373522 0.02789677 0.005034265
-0.13317397 0.10910151 0.042226627 -0.05811929 -0.1497303 0.032506976 0.0017842035 0.036088612
-0.17661878 -0.14450066 -0.002123917 -0.098657206 -0.01700762 -0.09883842 -0.08411015 0.108598486

beta_gru.bias_ih_l0 f4 [96]
00000000: d2c6 543e 6917 1a3e c791 fabd 8790 6b3d
00000010: cb6e b33c ba87 b4bc 7860 573d c622 d63d
00000020: 8b04 45ba 3141 f5bd 23f7 0a3e 4ef3 613c
00000030: d2b7 f63d 70b0 dcbd 693d 0bbd 0b5d 083e
00000040: 60b0 04be ca47 353e 68de 633b 3aa6 50bc
00000050: a997 38bd 6d12 47bc c558 bc3d 894b b83d
00000060: 2077 b2bd 6954 703d 55ec 4f3d 4985 14bd
00000070: 5392 0a3e d3a5 a3bc 109d 623c 34e4 1c3e
00000080: c062 bcbc 923d 4dbe d510 abbc 935d efbd
00000090: 5386 33be 5a10 a4bd 7332 48be fea3 27be
000000a0: a6aa 72be 81eb 23bd 4a10 833d 1470 40be
000000b0: e9e3 48be eaf5 223d 0487 973d 5a64 293d
000000c0: 2e4a ce3c 9a4b 53bd 4478 2bbe 5323 673d
000000d0: 755a c3bd e008 ca3c 7f1b a23d 02ec 6bbe
000000e0: 8f0d 44bd a48a 0abe 8aff ff3b df4e 42bd
000000f0: 03ab a1bc 9d31 39be 1f31 59be c68e fb3d
00000100: 901e efbd 55ea 263e de36 3fbe ed78 d73d
00000110: 179e 683d 6edc 9cbd f718 05be 611c 613c
00000120: 3bea a6bd 3dec 413d fc38 093d 51b0 923d
00000130: 39b6 b03d 5d75 2b3c bd3f 5f3e d396 05bd
00000140: 2672 013e ffc7 f73d 64c1 32bc 3e74 4c3e
00000150: e655 47be 6afd 133d 5dc7 9e3d 463b 00be
00000160: b992 2cbe a02e d43c 1d91 6ebd 2f20 e9bc
00000170: 03de 8abd b93d f33d afec 72bd 5356 473e
0.20778969 0.15047993 -0.12234836 0.05751088 0.021903416 -0.022037376 0.052582234 0.10455851
-0.00075156306 -0.11975325 0.13570838 0.0137909185 0.1204678 -0.1077584 -0.033994112 0.13316743
-0.12957907 0.17703167 0.0034770016 -0.012734944 -0.04506651 -0.012150389 0.09196619 0.08998782
-0.087141275 0.05867425 0.050762493 -0.036259923 0.13532381 -0.019976532 0.013831392 0.15321428
-0.022996306 -0.20043018 -0.02088205 -0.1168777 -0.1753171 -0.08010931 -0.19550495 -0.16371152
-0.2369791 -0.040019516 0.06399591 -0.18792754 -0.19618191 0.039785303 0.07398799 0.04135547
0.025181856 -0.05158577 -0.16745096 0.056430172 -0.09538738 0.024662435 0.07915401 -0.23039249
-0.047864493 -0.1352945 0.007812445 -0.0474385 -0.019734865 -0.18085332 -0.21210144 0.12283091
-0.11675751 0.16300328 -0.18673274 0.10521112 0.05679139 -0.07659231 -0.12997805 0.013739676
-0.08150145 0.047344435 0.03350161 0.07162536 0.08628506 0.010464993 0.21801658 -0.03261454
0.126412 0.12098693 -0.010910366 0.19966218 -0.19466361 0.036130346 0.07752869 -0.12522611
-0.16852845 0.025901139 -0.05824386 -0.02845773 -0.067806266 0.11877007 -0.05930775 0.19466524

beta_gru.bias_hh_l0 f4 [96]
00000000: 43f6 a43d c372 afbd 407a 9a3d c1ed 40be
00000010: ad24 403d b4f1 c0bd 4ef9 093e 19ff 133e
00000020: df04 d4bd 2179 fcbc d8fa c6bd e552 a53d
00000030: 1c62 233c e1a5 ceba a0b5 65bd 75e1 103e
00000040: d9d0 8cbd 5c07 a13c 42e4 cebd 036a b2bc
00000050: 0b7c 97bc 053b cb3d 5f1c 23be 1f92 f73d
00000060: 8c43 333e b288 a7bd 2cb5 3cbd ecba 46ba
00000070: 11cf 1abd 5844 30bd ff9b b9bd f10f 6b3e
00000080: b509 4dbe 3eb3 03be 7d29 f6bc 7e03 c5bc
00000090: 84da 27bd 7af5 a23a a63d 5bbe 3bf2 b1bd
000000a0: 1101 db3d eda6 89bd d1e2 d73d c9b6 84be
000000b0: 1f17 a7bd 854b 36be e735 7fbd c008 b6bc
000000c0: 77a9 edbb add7 7cbc dd27 ecbc 1615 62be
000000d0: 9d37 42be 79cb 713d 4288 0f3e d0f4 6e3d
000000e0: 94dd 303d b6dc dcbd 7040 24be bff0 e8bc
000000f0: ad4b cdbd eb2d 4f3b 4463 a53d e441 053d
00000100: 0dd3 cdbc 4d65 fabd f1de 18be 7084 ab3c
00000110: 8a08 173c 3c45 a2bd 7a2e 963d 244f cb3b
00000120: 5592 bbbd 34dc 8fbc 7d5c a2bd 24d8 bdbc
00000130: a446 b9bb 7fa0 b5bd af8c 653d 500d f73c
00000140: 1728 c3bc cf76 783d 4747 4cbe 516b 663e
00000150: 0124 1fbe 763b 983d 7695 dfbc de3b b83d
00000160: 06f5 853c c735 99bd 9009 353d dc06 0b3e
00000170: 24f7 b8bd 0c89 313e ac7d 053d 123d cc3d
0.08054783 -0.08566811 0.075428486 -0.18840696 0.046909977 -0.09421101 0.13474008 0.14452781
-0.103524916 -0.030819478 -0.097158134 0.080724515 0.009972122 -0.0015765989 -0.056081414 0.14148505
-0.06875772 0.01965683 -0.101021305 -0.021779066 -0.018491765 0.099233665 -0.15928791 0.12088417
0.17506236 -0.081803694 -0.046071216 -0.0007580954 -0.03779513 -0.043033928 -0.09062957 0.229553
-0.20023234 -0.12861344 -0.03004908 -0.024049517 -0.040979877 0.0012432777 -0.21410236 -0.0868878
0.10693563 -0.06721292 0.10541309 -0.25920704 -0.08158707 -0.17802246 -0.062307265 -0.02222097
-0.007252868 -0.0154322805 -0.028827602 -0.22078356 -0.18966527 0.059031937 0.14016822 0.05833894
0.043180063 -0.10784285 -0.16040206 -0.02843511 -0.100242 0.0031613063 0.08075574 0.03253354
-0.02512505 -0.12226353 -0.14928795 0.020937175 0.009218344 -0.07923362 0.073330835 0.0062045027
-0.0915877 -0.017561056 -0.07927797 -0.023174353 -0.005654173 -0.08868503 0.05604237 0.030157715
-0.023822827 0.06066018 -0.19949065 0.22501875 -0.15541078 0.07433216 -0.027292948 0.08995794
0.016352188 -0.0748096 0.044198573 0.13576835 -0.09031513 0.17337435 0.032590553 0.09972586

beta_attn.weight f4 [64, 32]
00000000: 916e e43d 34dd d4bd 4a71 053e b585 d7bd
00000010: 033c 0c3d 2d74 31be f603 553d 1494 303e
00000020: 86a7 833d af4f 0b3e d0a9 b3bd fa7f 22bd
00000030: 9b0f 5bbd d89b 3e3e 8667 ac3c e781 3cbe
00000040: 3a70 3d3d c901 383d 0758 31be 1948 953c
00000050: 60f5 3cbe c468 ce3d 2011 88bd 9e19 a43b
00000060: 975e 02be 496c 583d 24ba 033d 2b32 483d
00000070: bce0 0bbe 94d1 9fbd c894 01be 4066 1c3e
00000080: 6d7e c93d fd5a aa3d 07d2 b83c 2ee7 fdbd
00000090: af2b 3ebd 66a7 0d3c e9a6 8a3d afb6 003e
000000a0: 9e90 07be 5e39 e13d ed16 8dbd e209 163e
000000b0: 4c9c 22bd 34ac 7f3b 2196 09be 86ad 623d
000000c0: a6e4 4cbe 8016 cc3d 6432 ffbd 6b12 98bd
000000d0: 50d7 973d 02a1 013d fa17 54be 6012 133e
000000e0: dfae 213e 0e21 d83d 7136 4c3d 7c24 453e
000000f0: 968b efbb 5f26 1d3d 51de fd3d f291 84bc
00000100: b563 14be 56e7 6dbc 12b5 adbd e93f de3d
00000110: 6306 393d fedd e6bc 1647 20be b8ff 44bd
00000120: 0262 fd3d 972e f1bd 4d04 543d fffd d33d
00000130: de4a 133d 7194 a6bd 03a8 c2bc 858f b23c
00000140: 0fc9 cf3c ecd9 ffbd b4b3 a63c 6806 d9bd
00000150: ab7d b43d 0a1e b43d 4a0c ce3d 5e8f ccbd
00000160: 631b 6e3c 17d6 b7bd 657f babd a4c4 013e
00000170: 0b0d 28be 133c 9eba 206e 68bd 71ac b3bd
00000180: 83a1 193e a5a7 073d 7bb5 56be 5b41 98bc
00000190: 4f46 70bd 9f42 223e af39 eebd d6f8 403c
000001a0: 43e8 18be 17af b33d f31c 053d 6273 063d
000001b0: 36ed 60bd 07bb fcbd e9c0 82bd dbc4 b9bd
000001c0: 59e7 943c f36d fb3d bbbe b0bc 6d25 10be
000001d0: a4b4 42bd 818f d7bd 4516 aa3d 67c5 1ebe
000001e0: 72ea 9d3b 505e 6ebe b1ba 4d3d a3ff 16be
000001f0: 28f1 a53a 34b9 403e ddf0 33be a521 8cbd
00000200: 52e3 0cbe 97af d3bd bc15 5dbe 8b9a 943d
00000210: bfbb 28bd 179e b8bd 3bf5 733d 2806 c83d
00000220: 94b0 233e 1c1a 4fbd 38c7 c3bc c56e a2bd
00000230: f3a3 b13d d064 79bd e1df ffbd ad6f e9bd
00000240: 66f8 fbbb cbf7 df3d 4382 f43d 08f2 ffb9
00000250: 0d8c cdbc de9f 3cbd d44b 40be 179c 033e
00000260: af2b 163e c0cd 883d 321b 73bc 5a0c 263e
00000270: c5a6 d8bd beb5 b6bd d954 c4bd d082 cfbd
00000280: 1103 abbb d52e 0e3e 4204 0dbe 56bf dcbd
00000290: b651 2dbe 8ffc 733e 81ce 71bd 7539 fb3d
000002a0: 326d a5bc 57cf 1b3e 6a58 343e 0d0a 763d
000002b0: 3211 6ebe 4796 8cbd e988 aa3c 1760 adbd
000002c0: ab39 82bd 0178 a4bd 825f 35be 27c3 423d
000002d0: 9a5d 2cbb 8c7f fc3d c1d6 25be f336 1b3e
000002e0: 83fd 3f3e fe25 d2bd 1acb 37bd bc59 423c
000002f0: be6d 143e 8a3d aabd b350 2a3e a0e4 25be
00000300: ef76 da3d 5968 393e 5258 dcbc dc36 e2bd
00000310: 8fa3 0f3e 83b4 09bd ff69 0bbd 8554 bf3d
00000320: e694 cabd 5cde 53be 9c9f e1bd 84cf 3e3c
00000330: 74a5 7a3e a980 7dbd cff5 39be 81d2 d73a
00000340: 9799 643d e90d 893c f9f9 1f3e 34bd ef3b
00000350: 93dc a6bd a094 033e 69c7 ef3b d7c9 8cbd
00000360: 8942 273e 1304 af3d fa14 113d 9eb5 8fbb
00000370: 4917 e03d 78af 0b3d fb1a 003b 64ac 89bc
00000380: 137c d7bd 67e2 2bbe 246d 31be dc7e 3abb
00000390: 0878 0cbe 7672 aa3d 844c 053d ad54 9b3d
000003a0: ec6b b03c 3c3a a8bd b89a e1bd 06e6 af3d
000003b0: 7b41 31be b4d8 bbbc 3d9f 2dbe 8a13 c3bb
000003c0: d776 4cbe 4cae 76bb ed0a 1a3d b112 723c
000003d0: 3a96 b2bd 2396 793c 20ef cebb ccee e43d
000003e0: 9ede 35be d14d c73d a719 1cbe f2c2 353e
000003f0: 2bb3 16be 0297 4bbe 33e0 d53d c798 593b
0.11153901 -0.10393754 0.13031498 -0.105235495 0.03423692 -0.17329474 0.05200573 0.17243987
0.06428437 0.13604616 -0.087726235 -0.03967283 -0.05348168 0.18614137 0.021045458 -0.18408929
0.046249606 0.044923577 -0.17318736 0.018222855 -0.18452978 0.10078576 -0.06643891 0.0050079366
-0.12731396 0.052837644 0.03215994 0.04887597 -0.13659948 -0.07803646 -0.12654412 0.1527338
0.09838567 0.08318136 0.022561086 -0.1239761 -0.04642838 0.008645868 0.06770117 0.12569688
-0.13238761 0.1099727 -0.06889138 0.14652207 -0.039699838 0.0039012553 -0.13436176 0.055341266
-0.20009097 0.09965229 -0.12460783 -0.07425388 0.074141145 0.03164769 -0.20712271 0.14362478
0.15789364 0.1055318 0.049856607 0.19252199 -0.007310341 0.03836667 0.12395919 -0.016182873
-0.1449116 -0.014520487 -0.08481802 0.10852034 0.045172106 -0.028182026 -0.15652117 -0.048095435
0.12372209 -0.117764644 0.051761914 0.1035118 0.03596007 -0.08133782 -0.023761755 0.021796951
0.025364427 -0.12492737 0.020349361 -0.10596925 0.08813032 0.08794792 0.10060938 -0.099882826
0.014532897 -0.08976381 -0.0910633 0.12672669 -0.16411225 -0.0012072347 -0.05674565 -0.08773125
0.15003018 0.033118863 -0.20967667 -0.018585851 -0.0586608 0.15845726 -0.11632096 0.011778077
-0.14932351 0.0877363 0.03249831 0.03282488 -0.054913722 -0.1234036 -0.06384451 -0.0907075
0.018176721 0.122768305 -0.021575322 -0.14076777 -0.047535554 -0.10525418 0.08305029 -0.1550499
0.004819208 -0.23278165 0.05022687 -0.14745955 0.0012660371 0.1882065 -0.17572351 -0.06842355
-0.13758591 -0.103362255 -0.21590322 0.07256039 -0.041194674 -0.09014528 0.059560042 0.09766799
0.15985328 -0.05056201 -0.023898706 -0.07931284 0.08673849 -0.060887158 -0.124938734 -0.113982536
-0.0076895235 0.10935935 0.11938908 -0.00048817717 -0.025091195 -0.0460509 -0.18778926 0.12852512
0.14665101 0.06679869 -0.014838027 0.16215649 -0.10578684 -0.08921383 -0.09586496 -0.101323724
-0.0052188714 0.13885053 -0.13771155 -0.10778682 -0.16925701 0.23826812 -0.059034828 0.122668184
-0.02019367 0.15215813 0.17611852 0.06006818 -0.23248747 -0.06864601 0.020817237 -0.08465593
-0.063586555 -0.080307014 -0.17712215 0.047549393 -0.0026300908 0.12329015 -0.16195203 0.1515768
0.18749051 -0.10261153 -0.044871427 0.011862215 0.14494988 -0.08312519 0.16632347 -0.16200495
0.10667216 0.18106212 -0.026897583 -0.1104562 0.14027236 -0.033619415 -0.034036633 0.09342293
-0.098916814 -0.20690292 -0.11016771 0.011646155 0.24477178 -0.061890278 -0.18160175 0.0016465933
0.055810537 0.016730266 0.15622701 0.007316256 -0.0814754 0.12849665 0.0073174727 -0.068744354
0.16333975 0.08545699 0.035420395 -0.004385664 0.10941941 0.034102887 0.0019547332 -0.016805835
-0.10521712 -0.16785584 -0.1732679 -0.0028456962 -0.13717663 0.08322613 0.032543674 0.0758451
0.021535836 -0.08214232 -0.110158384 0.08588795 -0.17310135 -0.02293048 -0.16955276 -0.005953257
-0.19967209 -0.003764051 0.037608076 0.014774964 -0.0872006 0.015233549 -0.006315127 0.111783594
-0.17760703 0.09731639 -0.1524416 0.17750147 -0.14716785 -0.19881824 0.10443153 0.0033202635
